{"format": "torch", "nodes": [{"name": "encoder", "id": 140201157381904, "class_name": "Uencoder(\n  (block1_1): convBlock(\n    (conv): Conv2d(3, 60, kernel_size=(3, 3), stride=(1, 1), padding=(1, 1))\n    (act): GELU()\n    (dropout): Dropout2d(p=0.2, inplace=False)\n    (batch): BatchNorm2d(60, eps=1e-05, momentum=0.1, affine=True, track_running_stats=True)\n  )\n  (block1_2): convBlock(\n    (conv): Conv2d(60, 60, kernel_size=(3, 3), stride=(1, 1), padding=(1, 1))\n    (act): GELU()\n    (dropout): Dropout2d(p=0.2, inplace=False)\n    (batch): BatchNorm2d(60, eps=1e-05, momentum=0.1, affine=True, track_running_stats=True)\n  )\n  (block1): convBlock(\n    (conv): Conv2d(60, 60, kernel_size=(3, 3), stride=(1, 1), padding=(1, 1))\n    (act): GELU()\n    (dropout): Dropout2d(p=0.2, inplace=False)\n    (batch): BatchNorm2d(60, eps=1e-05, momentum=0.1, affine=True, track_running_stats=True)\n  )\n  (pool1): MaxPool2d(kernel_size=3, stride=1, padding=0, dilation=1, ceil_mode=False)\n  (block2_1): convBlock(\n    (conv): Conv2d(60, 60, kernel_size=(3, 3), stride=(1, 1), padding=(1, 1))\n    (act): GELU()\n    (dropout): Dropout2d(p=0.2, inplace=False)\n    (batch): BatchNorm2d(60, eps=1e-05, momentum=0.1, affine=True, track_running_stats=True)\n  )\n  (block2_2): convBlock(\n    (conv): Conv2d(60, 60, kernel_size=(3, 3), stride=(1, 1), padding=(1, 1))\n    (act): GELU()\n    (dropout): Dropout2d(p=0.2, inplace=False)\n    (batch): BatchNorm2d(60, eps=1e-05, momentum=0.1, affine=True, track_running_stats=True)\n  )\n  (block2): convBlock(\n    (conv): Conv2d(60, 60, kernel_size=(3, 3), stride=(1, 1), padding=(1, 1))\n    (act): GELU()\n    (dropout): Dropout2d(p=0.2, inplace=False)\n    (batch): BatchNorm2d(60, eps=1e-05, momentum=0.1, affine=True, track_running_stats=True)\n  )\n  (pool2): MaxPool2d(kernel_size=3, stride=1, padding=0, dilation=1, ceil_mode=False)\n  (block3_1): convBlock(\n    (conv): Conv2d(60, 60, kernel_size=(3, 3), stride=(1, 1), padding=(1, 1))\n    (act): GELU()\n    (dropout): Dropout2d(p=0.2, inplace=False)\n    (batch): BatchNorm2d(60, eps=1e-05, momentum=0.1, affine=True, track_running_stats=True)\n  )\n  (block3_2): convBlock(\n    (conv): Conv2d(60, 60, kernel_size=(3, 3), stride=(1, 1), padding=(1, 1))\n    (act): GELU()\n    (dropout): Dropout2d(p=0.2, inplace=False)\n    (batch): BatchNorm2d(60, eps=1e-05, momentum=0.1, affine=True, track_running_stats=True)\n  )\n  (block3): convBlock(\n    (conv): Conv2d(60, 60, kernel_size=(3, 3), stride=(1, 1), padding=(1, 1))\n    (act): GELU()\n    (dropout): Dropout2d(p=0.2, inplace=False)\n    (batch): BatchNorm2d(60, eps=1e-05, momentum=0.1, affine=True, track_running_stats=True)\n  )\n)", "parameters": [["block1_1.resweight", [1]], ["block1_1.conv.weight", [60, 3, 3, 3]], ["block1_1.conv.bias", [60]], ["block1_1.batch.weight", [60]], ["block1_1.batch.bias", [60]], ["block1_2.resweight", [1]], ["block1_2.conv.weight", [60, 60, 3, 3]], ["block1_2.conv.bias", [60]], ["block1_2.batch.weight", [60]], ["block1_
…
0]], ["block3.resweight", [1]], ["block3.conv.weight", [60, 60, 3, 3]], ["block3.conv.bias", [60]], ["block3.batch.weight", [60]], ["block3.batch.bias", [60]]], "output_shape": [[5, 60, 256, 256], [5, 60, 254, 254], [5, 60, 252, 252], [5, 60, 254, 254], [5, 60, 252, 252], [[], [], [], 0], [0, 0, [], 0]], "num_parameters": [1, 1620, 60, 60, 60, 1, 32400, 60, 60, 60, 1, 32400, 60, 60, 60, 1, 32400, 60, 60, 60, 1, 32400, 60, 60, 60, 1, 32400, 60, 60, 60, 1, 32400, 60, 60, 60, 1, 32400, 60, 60, 60, 1, 32400, 60, 60, 60]}, {"name": "middle", "id": 140201157397472, "class_name": "convBlock(\n  (conv): Conv2d(60, 60, kernel_size=(3, 3), stride=(1, 1), padding=(1, 1))\n  (act): GELU()\n  (dropout): Dropout2d(p=0, inplace=False)\n  (batch): BatchNorm2d(60, eps=1e-05, momentum=0.1, affine=True, track_running_stats=True)\n)", "parameters": [["resweight", [1]], ["conv.weight", [60, 60, 3, 3]], ["conv.bias", [60]], ["batch.weight", [60]], ["batch.bias", [60]]], "output_shape": [[5, 60, 252, 252]], "num_parameters": [1, 32400, 60, 60, 60]}, {"name": "decoder", "id": 140201157398288, "class_name": "Udecoder(\n  (block1): deconvBlock(\n    (conv): ConvTranspose2d(120, 60, kernel_size=(3, 3), stride=(1, 1))\n    (act): GELU()\n    (dropout): Dropout2d(p=0.2, inplace=False)\n    (batch): BatchNorm2d(60, eps=1e-05, momentum=0.1, affine=True, track_running_stats=True)\n  )\n  (block1_1): convBlock(\n    (conv): Conv2d(60, 60, kernel_size=(3, 3), stride=(1, 1), padding=(1, 1))\n    (act): GELU()\n    (dropout): Dropout2d(p=0.2, inplace=False)\n    (batch): BatchNorm2d(60, eps=1e-05, momentum=0.1, affine=True, track_running_stats=True)\n  )\n  (block1_2): convBlock(\n    (conv): Conv2d(60, 60, kernel_size=(3, 3), stride=(1, 1), padding=(1, 1))\n    (act): GELU()\n    (dropout): Dropout2d(p=0.2, inplace=False)\n    (batch): BatchNorm2d(60, eps=1e-05, momentum=0.1, affine=True, track_running_stats=True)\n  )\n  (block2): deconvBlock(\n    (conv): ConvTranspose2d(120, 60, kernel_size=(3, 3), stride=(1, 1))\n    (act): GELU()\n    (dropout): Dropout2d(p=0.2, inplace=False)\n    (batch): BatchNorm2d(60, eps=1e-05, momentum=0.1, affine=True, track_running_stats=True)\n  )\n  (block2_1): convBlock(\n    (conv): Conv2d(60, 60, kernel_size=(3, 3), stride=(1, 1), padding=(1, 1))\n    (act): GELU()\n    (dropout): Dropout2d(p=0.2, inplace=False)\n    (batch): BatchNorm2d(60, eps=1e-05, momentum=0.1, affine=True, track_running_stats=True)\n  )\n  (block2_2): convBlock(\n    (conv): Conv2d(60, 60, kernel_size=(3, 3), stride=(1, 1), padding=(1, 1))\n    (act): GELU()\n    (dropout): Dropout2d(p=0.2, inplace=False)\n    (batch): BatchNorm2d(60, eps=1e-05, momentum=0.1, affine=True, track_running_stats=True)\n  )\n  (block3): deconvBlock(\n    (conv): ConvTranspose2d(120, 60, kernel_size=(3, 3), stride=(1, 1))\n    (act): GELU()\n    (dropout): Dropout2d(p=0.2, inplace=False)\n    (batch): BatchNorm2d(60, eps=1e-05, momentum=0.1, affine=True, track_running_stats=True)\n  )\n  (block3_1): convBlock(\n    (conv): Conv2d(60, 60, kernel_size=(3, 3), stride=(1, 1), padding=(1, 1))\n    (act): GELU()\n    (dropout): Dropout2d(p=0.2, inplace=False)\n    (batch): BatchNorm2d(60, eps=1e-05, momentum=0.1, affine=True, track_running_stats=True)\n  )\n  (block3_2): convBlock(\n    (conv): Conv2d(60, 60, kernel_size=(3, 3), stride=(1, 1), padding=(1, 1))\n    (act): GELU()\n    (dropout): Dropout2d(p=0.2, inplace=False)\n    (batch): BatchNorm2d(60, eps=1e-05, momentum=0.1, affine=True, track_running_stats=True)\n  )\n  (output): Conv2d(60, 10, kernel_size=(3, 3), stride=(1, 1))\n)", "parameters": [["block1.conv.weight", [120, 60, 3, 3]], ["block1.conv.bias", [60]], ["block1.batch.weight", [60]], ["block1.batch.bias", [60]], ["block1_1.resweight", [1]], ["block1_1.conv.weight", [60, 60, 3, 3]], ["block1_1.conv.bias", [60]], ["block1_1.batch.weight", [60]], ["block1_1.batch.bias", [60]], ["block1_2.resweight", [1]], ["block1_2.con
…
